_10_52_mlflow_pytorch/mlruns/2/c04b5bda3f3a4e0a8f801839cddba98f/artifacts/models/data/model.pth (torch, 4887 bytes, 6 tensors)

weight f4 [10, 2]
000000 cc 9b 4e be 8d ae 44 3f 73 ff 75 3f 33 8c c4 be
       -0.2017662 0.76828843 0.9609291 -0.38388214
000010 c8 46 55 3f fb ed d9 3d a9 95 7c be b0 77 89 3f
       0.8331113 0.10641094 -0.24666466 1.0739651
000020 3c cd c2 be 9d 95 58 bf 4b 24 d6 3e 63 b5 40 3f
       -0.38047206 -0.8460329 0.41824564 0.75276774
000030 1a d4 ce be 79 f3 0a 3f 9e 9d d7 3e 03 b7 38 3f
       -0.40396196 0.5427776 0.4211244 0.72154254
000040 18 a1 79 3d 83 54 6c be 99 a3 6b be dc 3e 88 3e
       0.060944647 -0.23079114 -0.23011626 0.26610458

bias f4 [10]
000000 02 da 98 3e 62 17 20 bd 71 b8 42 3f 66 1b 66 3f
       0.29853827 -0.0390848 0.76062685 0.89885557
000010 c2 59 27 3f b7 74 79 3e 30 a0 6f 3f 45 f3 91 be
       0.65371335 0.2436093 0.936038 -0.28505912
000020 51 b2 44 3f 68 24 ed be
       0.7683459 -0.46316838

weight f4 [10, 10]
000000 49 09 12 3f 2c d7 32 3f 9b 4d e3 3e 9a f7 1b 3f
       0.5704542 0.69859576 0.44395146 0.60924685
000010 63 df 11 bf 15 64 08 3f ad db 08 3f da 78 e9 3e
       -0.56981486 0.53277713 0.534602 0.45600015
000020 a9 37 ce 3e 7e c5 1d be d8 de 11 bf f5 ce c9 be
       0.4027684 -0.15407369 -0.5698066 -0.39415708
000030 c6 a8 73 be 1f 62 a3 bd a4 a4 02 3f dc 86 e9 bd
       -0.2379485 -0.079776995 0.5103247 -0.114026755
000040 3e d9 97 3e 24 ca da be de da 4d 3e e0 8e 0b 3e
       0.2965793 -0.42732346 0.20103022 0.13628721
000050 a2 16 2d be 33 66 33 be 44 da b6 be 4e 2e c1 be
       -0.16903165 -0.17519455 -0.35713398 -0.3773064
000060 d7 71 00 3f de fd 0a bf 81 95 cf 3e 76 f1 2d 3d
       0.50173706 -0.5429362 0.4054375 0.042466603
000070 88 45 a5 3c 79 d2 12 be c2 6a 3e 3e a1 39 28 3f
       0.020174757 -0.14338101 0.18595412 0.65712935
000080 7a 4f 35 3f 14 6e f0 3d 16 e9 23 be c2 95 da 3e
       0.70824397 0.11739746 -0.16006884 0.4269238
000090 0d 1b 33 3e f6 41 a4 3e 7b c0 28 3e 66 16 8a 3e
       0.17490788 0.32081574 0.16479675 0.26970214
0000a0 4b 64 3a 3d 17 96 b3 be 81 e4 ba be 1b 29 3d be
       0.045505803 -0.35075447 -0.3650246 -0.18472712
0000b0 9d 17 1b 3f 36 02 4d bd 16 8c d4 3d 49 09 51 3d
       0.60582906 -0.050050937 0.10378282 0.051034246
0000c0 bd f7 aa 3e aa 20 1e 3e 1b 71 1d be ef eb a5 bd
       0.33392134 0.15442148 -0.15375178 -0.081016414
0000d0 d8 b1 a9 3c eb 1b 1c be 24 bc 9c be 41 d1 41 be
       0.020714685 -0.15245025 -0.3061229 -0.1892748
0000e0 46 86 52 be 6a 9d b0 bd 53 36 ac bd 82 75 70 3e
       -0.20559034 -0.08623774 -0.08408799 0.23482326
0000f0 e9 a0 e3 3e 7d f6 02 3f 1e 17 e0 3e 0d be dc 3e
       0.44458702 0.5115736 0.43767637 0.43113747
000100 0e 3e a1 be 46 51 e5 3e 4a 8d 2e 3e b1 ef 8d 3e
       -0.31492656 0.4478857 0.17046085 0.27721933
000110 bf 47 e5 3d cb a0 69 3e 8e 83 b7 be bb aa 3d be
       0.11195325 0.22815244 -0.35842556 -0.1852216
000120 dd 46 49 be f4 60 c8 be 74 72 26 3f 1b 18 34 be
       -0.19655938 -0.3913647 0.6501839 -0.1758732
000130 b9 eb 64 3d 5d 1b 8b bd 2a a7 5a 3e 96 cc bc 3c
       0.055888865 -0.067923285 0.2135283 0.023046773
000140 b5 56 2c be b7 97 ae be 4b ae 28 bf d6 f8 03 bf
       -0.16829951 -0.34100124 -0.6589095 -0.5155157
000150 92 4f 92 3e ce 1d f9 be ac 68 c7 3e 60 da 9b be
       0.28576332 -0.48655552 0.38947046 -0.30440044
000160 65 06 16 3f 7e ac b0 bd c9 cd 26 3e 9f 96 d4 bd
       0.5860351 -0.0862665 0.16289438 -0.10380291
000170 e7 1b 1c be c6 58 cb bc ae 5f aa 3e 3e 2d 80 bd
       -0.15245019 -0.024822604 0.33276123 -0.06258629
000180 a2 4b 58 3e 37 9a 25 3e f4 f1 87 bc 34 27 51 3d
       0.21122602 0.1617211 -0.016594864 0.051062778

bias f4 [10]
000000 f3 fc 69 3e 9d fb 31 bd 0d 57 86 3e 85 bd a1 3e
       0.22850399 -0.043452848 0.2623829 0.31589904
000010 6d 08 9a bd fb 6e e0 bc 04 9f 8c 3e c1 3e 91 3e
       -0.07521138 -0.02739667 0.2746507 0.2836819
000020 2c 5a c4 3e fc d7 d2 3e
       0.38350046 0.41180408

weight f4 [2, 10]
000000 5e 38 0b bf a5 ae ea 3e dc 4a 29 3f 4f f7 15 bf
       -0.54382885 0.45836368 0.6612985 -0.5858049
000010 4a 83 ce 3e fc ab 0b 3e ed 11 19 bf 22 0b b0 3e
       0.4033454 0.13639826 -0.5979298 0.34383494
000020 09 bd 6f 3e f5 87 79 bd 24 2c 37 3f 22 36 21 bf
       0.23411955 -0.060920674 0.7155173 -0.62973225
000030 e3 90 8e be 32 b8 89 3e 99 dd b5 be 8d 9b 83 bb
       -0.27844915 0.26898342 -0.35520628 -0.004016346
000040 8c 47 fa 3e 07 d0 8b be e4 58 20 bf 58 bd 9c be
       0.4888271 -0.2730715 -0.62635636 -0.30613208

bias f4 [2]
000000 1c e2 65 be d1 ef 6d 3d
       -0.22449535 0.058090035
