_05_25_pytorch_create_save_onnx/customer.onnx (onnx, 1239 bytes, 6 tensors)

fc1.weight f4 [10, 2]
00000000: 2644 a6be 24c2 8dbf 844f 813f 02ab 513e
00000010: c6d9 b9be 28d1 a03d ac20 9fbd 2586 6ebf
00000020: dfb0 863f bdd7 993f 227f b73f ac7d 033f
00000030: 76db 433e f0fe 413b e98c 823f 7317 7fbe
00000040: f483 29bf c6a1 9abf a0fe c2be 63a0 57bf
-0.32473868 -1.1074872 1.0102391 0.2047539 -0.3629896 0.078523934 -0.077699035 -0.9317344
1.0522727 1.2018963 1.4335673 0.51363635 0.19126686 0.0029601417 1.0199252 -0.24911289
-0.6621697 -1.2080619 -0.38084888 -0.84229106

fc1.bias f4 [10]
00000000: 1cdd 46be 8ef9 8a3e 5c08 073f a244 9f3e
00000010: 3b72 283f ced9 003f c8b9 0dbf 368b 783c
00000020: 6f50 25be f29b c73e
-0.19420284 0.2714352 0.5274713 0.3110705 0.657993 0.50332344 -0.55361605 0.015169909
-0.16143964 0.38986164

fc2.weight f4 [10, 10]
00000000: eebc 203f 6c9b a5bf f015 843d 417e cc3e
00000010: 73b0 48bf b116 64bf 992c 8fbe 23eb 41bf
00000020: e196 3f3f 677c 1f3f cd72 093e a620 a13c
00000030: eefd dfbd 578b aabe 369d 52be 5c06 463c
00000040: b65c 593e 9ddb 19bd 4d8f 81be cf87 3a3e
00000050: 4dcc 84be 3238 cd3e 89a1 5b3e 442f 1cbd
00000060: 7b50 f13c 4599 8a3e f490 26be 82d9 903f
00000070: 03bd 32be 0694 01be 6a81 edbe 6915 ff3c
00000080: 5830 2c3f f2a1 04bd 9645 d13e c6a1 a13e
00000090: 6357 8f3c 6e33 4e3f 04ab 5fbe c65b 0cbd
000000a0: 980a 80be aaa5 253f e47f 9b3c c6e7 8cbe
000000b0: 9577 993e 33b5 0b3f ca36 523e 2b8a 703f
000000c0: 6126 cfbd d845 2c3e 8e8a 053e 67fc b0bd
000000d0: 8fda 08be 32e7 97be abeb 2ebe 6cda e9bd
000000e0: 6207 5ebe b04b 91be 57fd 453e 0036 91be
000000f0: 8408 ebbe 64e7 9b3e b0c8 a63e 1244 09bf
00000100: 5107 d73e bfba c43e fc15 85be 6fd8 1b3f
00000110: 140f 6cbe a28c 353e e5b2 f7bd ebeb 60bc
00000120: 8bd6 28be 9dc6 dbbe 59b8 683d a85a e7bd
00000130: 7abe 80be 0ba5 513e adbf 283d 865f 50be
00000140: ac85 8f3e b847 9f3e d1d1 91be bd5b 33be
00000150: b266 0ebd b2c9 43be 9e56 9e3e 144c d23d
00000160: 1e2f 2ebd 51a9 17be 9b92 10be 652d 1fbe
00000170: 29a8 083e e6da 63be 1888 743d 222f 13bd
00000180: 1f0b 183e c49b 87be 1c0b 333e bbdf 66be
0.62788284 -1.2938056 0.06449497 0.39940074 -0.7839424 -0.89097124 -0.27963713 -0.75749415
0.748396 0.622992 0.134227 0.019668888 -0.10937105 -0.33309433 -0.20567784 0.012086477
0.21226773 -0.037562955 -0.25304642 0.1821587 -0.2593712 0.40081936 0.2144834 -0.038131014
0.029457321 0.2707006 -0.16266233 1.1316378 -0.17454915 -0.12654123 -0.46387798 0.031138139
0.67261267 -0.032381006 0.40873402 0.31568736 0.017497724 0.80547225 -0.21842581 -0.03426721
-0.25008082 0.6470591 0.018981881 -0.2752058 0.29974046 0.54573363 0.20528713 0.9396083
-0.10114742 0.16823518 0.13041136 -0.08641892 -0.13364623 -0.29668576 -0.17082088 -0.11418614
-0.21682504 -0.28378057 0.19334923 -0.2836151 -0.45904934 0.30449975 0.32574987 -0.5361949
0.4199777 0.38423726 -0.25993335 0.60877126 -0.23052627 0.17729428 -0.12094668 -0.013728122
-0.16488092 -0.42924967 0.056816433 -0.11296588 -0.25145322 0.20473115 0.04119842 -0.2034894
0.2803167 0.31109405 -0.2848039 -0.17515464 -0.034765907 -0.1911991 0.3092546 0.10268417
-0.042525403 -0.14810683 -0.14118426 -0.1554466 0.13345398 -0.22251472 0.0597001 -0.03593362
0.14847992 -0.26486027 0.17484707 -0.22546284

fc2.bias f4 [10]
00000000: 8853 c53e bc5e 04be 1088 0c3f 16ef b73e
00000010: eefe db3e c8a6 a33d 6073 1c3f ce30 9c3c
00000020: b396 eebd 32cd 6fbe
0.38540292 -0.12926763 0.54895115 0.35924596 0.42967933 0.079907954 0.6111355 0.01906624
-0.11649837 -0.2341812

fc3.weight f4 [2, 10]
00000000: 4d83 103f 0c10 183e 01bc d4be 6aa1 0bbf
00000010: cf4f d5be a477 833e 6fcd 34bf ba0b 32bd
00000020: 6245 2ebe ec3b d1ba b4e1 43bf 6bae 1dbe
00000030: 210e 8e3e bd54 3c3f 1f8e 123f 3487 2d3e
00000040: 10c9 fc3e c5ea 063e bc44 57be 8adb 863e
0.5645035 0.14849871 -0.41549686 -0.54543173 -0.41662452 0.25677216 -0.70625967 -0.043468215
-0.17018655 -0.0015963293 -0.7651627 -0.15398566 0.27745155 0.735668 0.5724811 0.16946107
0.4937215 0.13175495 -0.21022314 0.2633937

fc3.bias f4 [2]
00000000: 9e08 acbe 89b0 b73d
-0.33600324 0.08969218
