_05_20_save_export_reload_pytorch_models/customer_buy.pt (torch, 3351 bytes, 6 tensors)

weight f4 [10, 2]
00000000: 580e 7c3f 5c00 c03e 9467 69bf 1edd 0f3f
00000010: 7371 213f 8fe0 b0be e1b2 68bf 71db 91bf
00000020: 77e2 dcbe 59eb 05bf bab1 6fbf fab3 50be
00000030: 89de 1f3f f010 0d3f e124 87bd fd25 5ebe
00000040: 76ff 5bbf eba0 0b3f bac4 b83e 0191 dfbe
0.98459387 0.37500274 -0.9117367 0.56196773 0.63063735 -0.34546325 -0.9089795 -1.1395093
-0.4314153 -0.5231224 -0.93630564 -0.20381156 0.62448937 0.5510397 -0.06598831 -0.21694179
-0.8593668 0.54542416 0.3608759 -0.43665317

bias f4 [10]
00000000: 1d33 1a3f 3105 383e 6fe1 283f ad8c b13e
00000010: c286 b33d 0ecd 1a3f 4b9a 723f af20 2fbf
00000020: eec8 293e 52c0 44be
0.6023424 0.1797073 0.65968984 0.3467764 0.087659374 0.6046914 0.9476668 -0.68409246
0.16580555 -0.1921399

weight f4 [10, 10]
00000000: 36c2 a0be d593 5abe 436e a7bd 679e 4dbe
00000010: 571a 503d 3ee9 fc3d c7c8 8bbe 1690 91be
00000020: a2e2 aabb ab6c 06be ab83 87bd 9236 04be
00000030: 07dc 4abe b496 96be 0787 dcbd 694e ccbe
00000040: 4313 4b3e 516d 8b3e b7b9 e13c 6940 2abc
00000050: f48d 113e a670 86be 79d1 e2be 3b36 a9be
00000060: 338c 003e 483f 85be 7810 8cbd e068 dc3d
00000070: 7f9d 0b3d 0234 e1be d67d 973d ca67 f8bd
00000080: a29a 34bd 2443 6dbd f0ff ce3c 25c3 ecbd
00000090: c947 13be bc32 633e c53a 873e 900e 98be
000000a0: 7c0d 363f bf68 913e 117d c73e 64f5 ffbe
000000b0: 657a 89be 30f4 57bf 7d8d 233f af2a 75be
000000c0: b78b e83e 9fc0 1b3e 9e50 c2bd 3a9a b6be
000000d0: 8ae7 37be 5817 d0bd 10b9 7ebe 7305 13be
000000e0: 0e20 273e ae16 14be ad1f 61bc f113 84be
000000f0: b7b1 c9bd 9dcd b8be 6db2 113e a86f b2be
00000100: 41e2 9bbe 006a bebe ec2b 9c3d aaaf 813e
00000110: 222a d2be 56b3 83be a9ce 583f 13af 603e
00000120: a6af d2bc 6cdd 1abf 5770 34be a2a0 3c3e
00000130: 1c2a 193f d0f8 f8bd 8bb8 e73e d35e 463f
00000140: 72e8 8cbe 3460 3abc 3e1e acbd b8bc 2c3e
00000150: d777 98be 6a13 c2be 5371 78be db02 26be
00000160: cd1d 37bd 06b4 32be 4b2e 433f 0eb2 133f
00000170: b30b f1bd 7982 1cbf 34c5 1bbf b04c 93be
00000180: 0f45 6c3f 1520 83be 8a12 423f d688 713e
-0.3139817 -0.21345456 -0.08175328 -0.20079957 0.05080637 0.12349175 -0.27301618 -0.2843024
-0.005215005 -0.13127391 -0.066169105 -0.12911442 -0.19810496 -0.29411852 -0.10767942 -0.39903572
0.19831567 0.2723184 0.027554376 -0.010391333 0.14214307 -0.2625782 -0.4430044 -0.33049187
0.12553482 -0.26024842 -0.06839079 0.10762191 0.034085747 -0.4398499 0.07397048 -0.12129171
-0.04409278 -0.05792536 0.025268525 -0.11560658 -0.14382853 0.22187322 0.26412025 -0.2969861
0.71114326 0.28400227 0.38962606 -0.49991906 -0.26851192 -0.84356976 0.6388777 -0.23942064
0.45419094 0.15210198 -0.09488033 -0.3566454 -0.17959419 -0.101607025 -0.24875283 -0.14357547
0.16320822 -0.14461777 -0.013740462 -0.25796464 -0.098483495 -0.3609437 0.1422822 -0.34850812
-0.30446056 -0.37190247 0.07625565 0.25329334 -0.4104777 -0.2572276 0.8469034 0.21941786
-0.025718521 -0.6049411 -0.17620979 0.18420652 0.5982988 -0.12156832 0.45257983 0.7748844
-0.27521092 -0.011375476 -0.08404206 0.16868865 -0.2977893 -0.37905437 -0.2426198 -0.16212027
-0.044706155 -0.17451486 0.7624251 0.57693565 -0.117698096 -0.61136585 -0.60847783 -0.28769445
0.92292875 -0.25610414 0.7580954 0.23587355

bias f4 [10]
00000000: 9532 c5bd 3f42 f7bd f0a0 c03d ee48 15be
00000010: 7e4d 183f defd 10be 5545 84be 6d42 9b3e
00000020: e46b 21be 36f0 063f
-0.096287884 -0.12073182 0.094056964 -0.14578602 0.59493244 -0.14159343 -0.25834146 0.30324116
-0.15763813 0.5271028

weight f4 [2, 10]
00000000: 1d0e 8e3d 1ca2 553d c128 ad3d 6933 61bd
00000010: 75dc babe 4fe6 0bbe 37fe 003d 5694 a6be
00000020: cd67 0d3e 62ed 61bf 8df4 8bbe f3c7 523e
00000030: 8de1 fb3d cb97 5fbe bd3d 013f 805b cfbd
00000040: a77e 073e ea42 4d3f 6ef9 523d 5168 c93e
0.06936286 0.052156553 0.08455039 -0.05498067 -0.3649632 -0.13662075 0.03149244 -0.32535046
0.13809128 -0.8825284 -0.27335015 0.20584087 0.1229888 -0.21835248 0.5048483 -0.10124874
0.13231908 0.8018023 0.051507406 0.393374

bias f4 [2]
00000000: 0512 c53e 8560 aabe
0.3849031 -0.33276764
